--------------------------------------------------------------------------
             Layer (type)                    Output Shape         Param #
==========================================================================
                 Conv2d-1               [1, 16, 128, 256]             448
              LeakyReLU-2               [1, 16, 128, 256]               0
                 Conv2d-3               [1, 16, 128, 256]           2,320
              LeakyReLU-4               [1, 16, 128, 256]               0
                 Conv2d-5               [1, 16, 128, 256]             448
              LeakyReLU-6               [1, 16, 128, 256]               0
                 Conv2d-7               [1, 16, 128, 256]           2,320
              LeakyReLU-8               [1, 16, 128, 256]               0
                 Conv2d-9                [1, 32, 64, 128]           4,640
             LeakyReLU-10                [1, 32, 64, 128]               0
                Conv2d-11                [1, 32, 64, 128]           9,248
             LeakyReLU-12                [1, 32, 64, 128]               0
                Conv2d-13                [1, 32, 64, 128]           9,248
             LeakyReLU-14                [1, 32, 64, 128]               0
                Conv2d-15                [1, 32, 64, 128]           4,640
             LeakyReLU-16                [1, 32, 64, 128]               0
                Conv2d-17                [1, 32, 64, 128]           9,248
             LeakyReLU-18                [1, 32, 64, 128]               0
                Conv2d-19                [1, 32, 64, 128]           9,248
             LeakyReLU-20                [1, 32, 64, 128]               0
                Conv2d-21                 [1, 64, 32, 64]          18,496
             LeakyReLU-22                 [1, 64, 32, 64]               0
                Conv2d-23                 [1, 64, 32, 64]          36,928
             LeakyReLU-24                 [1, 64, 32, 64]               0
                Conv2d-25                 [1, 64, 32, 64]          36,928
             LeakyReLU-26                 [1, 64, 32, 64]               0
                Conv2d-27                 [1, 64, 32, 64]          18,496
             LeakyReLU-28                 [1, 64, 32, 64]               0
                Conv2d-29                 [1, 64, 32, 64]          36,928
             LeakyReLU-30                 [1, 64, 32, 64]               0
                Conv2d-31                 [1, 64, 32, 64]          36,928
             LeakyReLU-32                 [1, 64, 32, 64]               0
           FastFlowNet-33                  [1, 128, 4, 8]               0
                Linear-34                    [1, 10, 512]       2,097,664
==========================================================================
Total params: 2,334,176
Trainable params: 2,334,176
Non-trainable params: 0
--------------------------------------------------------------------------
Input size (MB): 16.50
Forward/backward pass size (MB): 0.04
Params size (MB): 8.90
Estimated Total Size (MB): 25.44
--------------------------------------------------------
…
