--------------------------------------------------------------------------
             Layer (type)                    Output Shape         Param #
==========================================================================
                 Conv2d-1               [1, 64, 128, 256]          18,816
            BatchNorm2d-2               [1, 64, 128, 256]             128
              LeakyReLU-3               [1, 64, 128, 256]               0
                Dropout-4               [1, 64, 128, 256]               0
                 Conv2d-5               [1, 128, 64, 128]         204,800
            BatchNorm2d-6               [1, 128, 64, 128]             256
              LeakyReLU-7               [1, 128, 64, 128]               0
                Dropout-8               [1, 128, 64, 128]               0
                 Conv2d-9                [1, 256, 32, 64]         819,200
           BatchNorm2d-10                [1, 256, 32, 64]             512
             LeakyReLU-11                [1, 256, 32, 64]               0
               Dropout-12                [1, 256, 32, 64]               0
                Conv2d-13                [1, 256, 32, 64]         589,824
           BatchNorm2d-14                [1, 256, 32, 64]             512
             LeakyReLU-15                [1, 256, 32, 64]               0
               Dropout-16                [1, 256, 32, 64]               0
                Conv2d-17                [1, 512, 16, 32]       1,179,648
           BatchNorm2d-18                [1, 512, 16, 32]           1,024
             LeakyReLU-19                [1, 512, 16, 32]               0
               Dropout-20                [1, 512, 16, 32]               0
                Conv2d-21                [1, 512, 16, 32]       2,359,296
           BatchNorm2d-22                [1, 512, 16, 32]           1,024
             LeakyReLU-23                [1, 512, 16, 32]               0
               Dropout-24                [1, 512, 16, 32]               0
                Conv2d-25                 [1, 512, 8, 16]       2,359,296
           BatchNorm2d-26                 [1, 512, 8, 16]           1,024
             LeakyReLU-27                 [1, 512, 8, 16]               0
               Dropout-28                 [1, 512, 8, 16]               0
                Conv2d-29                 [1, 512, 8, 16]       2,359,296
           BatchNorm2d-30                 [1, 512, 8, 16]           1,024
             LeakyReLU-31                 [1, 512, 8, 16]               0
               Dropout-32                 [1, 512, 8, 16]               0
                Conv2d-33                 [1, 1024, 4, 8]       4,718,592
           BatchNorm2d-34                 [1, 1024, 4, 8]           2,048
             LeakyReLU-35                 [1, 1024, 4, 8]               0
               Dropout-36                 [1, 1024, 4, 8]               0
                Linear-37                    [1, 10, 512]      16,777,728
==========================================================================
Total params: 31,394,048
Trainable params: 31,394,048
Non-trainable params: 0
--------------------------------------------------------------------------
Input size (MB): 16.50
Forward/backward pass size (MB): 0.04
Params size (MB): 119.76
Estimated Total Size (MB): 136.30
---------------------------------------------------
…
