--------------------------------------------------------------------------
             Layer (type)                    Output Shape         Param #
==========================================================================
                 Conv2d-1               [1, 16, 128, 256]             448
              LeakyReLU-2               [1, 16, 128, 256]               0
                Dropout-3               [1, 16, 128, 256]               0
                 Conv2d-4               [1, 16, 128, 256]           2,320
              LeakyReLU-5               [1, 16, 128, 256]               0
                Dropout-6               [1, 16, 128, 256]               0
                 Conv2d-7               [1, 16, 128, 256]             448
              LeakyReLU-8               [1, 16, 128, 256]               0
                Dropout-9               [1, 16, 128, 256]               0
                Conv2d-10               [1, 16, 128, 256]           2,320
             LeakyReLU-11               [1, 16, 128, 256]               0
               Dropout-12               [1, 16, 128, 256]               0
                Conv2d-13                [1, 32, 64, 128]           4,640
             LeakyReLU-14                [1, 32, 64, 128]               0
               Dropout-15                [1, 32, 64, 128]               0
                Conv2d-16                [1, 32, 64, 128]           9,248
             LeakyReLU-17                [1, 32, 64, 128]               0
               Dropout-18                [1, 32, 64, 128]               0
                Conv2d-19                [1, 32, 64, 128]           9,248
             LeakyReLU-20                [1, 32, 64, 128]               0
               Dropout-21                [1, 32, 64, 128]               0
                Conv2d-22                [1, 32, 64, 128]           4,640
             LeakyReLU-23                [1, 32, 64, 128]               0
               Dropout-24                [1, 32, 64, 128]               0
                Conv2d-25                [1, 32, 64, 128]           9,248
             LeakyReLU-26                [1, 32, 64, 128]               0
               Dropout-27                [1, 32, 64, 128]               0
                Conv2d-28                [1, 32, 64, 128]           9,248
             LeakyReLU-29                [1, 32, 64, 128]               0
               Dropout-30                [1, 32, 64, 128]               0
                Conv2d-31                 [1, 64, 32, 64]          18,496
             LeakyReLU-32                 [1, 64, 32, 64]               0
               Dropout-33                 [1, 64, 32, 64]               0
                Conv2d-34                 [1, 64, 32, 64]          36,928
             LeakyReLU-35                 [1, 64, 32, 64]               0
               Dropout-36                 [1, 64, 32, 64]               0
                Conv2d-37                 [1, 64, 32, 64]          36,928
             LeakyReLU-38                 [1, 64, 32, 64]               0
               Dropout-39                 [1, 64, 32, 64]               0
                Conv2d-40                 [1, 64, 32, 64]          18,496
             LeakyReLU-41                 [1, 64, 32, 64]               0
               Dropout-42                 [1, 64, 32, 64]               0
                Conv2d-43                 [1, 64, 32, 64]          36,928
             LeakyReLU-44                 [1, 64, 32, 64]               0
               Dropout-45                 [1, 64, 32, 64]               0
                Conv2d-46                 [1, 64, 32, 64]          36,928
             LeakyReLU-47                 [1, 64, 32, 64]               0
               Dropout-48                 [1, 64, 32, 64]               0
                Conv2d-49                 [1, 256, 6, 10]          33,024
           BatchNorm2d-50                 [1, 256, 6, 10]             512
             LeakyReLU-51                 [1, 256, 6, 10]               0
               Dropout-52                 [1, 256, 6, 10]               0
           FastFlowNet-53                 [1, 256, 6, 10]               0
                Linear-54                    [1, 10, 512]       7,864,832
==========================================================================
Total params: 8,134,880
Trainable params: 8,134,880
Non-trainable params: 0
--------------------------------------------------------------------------
Input size (MB): 16.50
Forward/backward pass size (MB): 0.04
Params size (MB): 31.03
Estimated Total Size (MB): 47.57
-------------------------------------------------------
…
